…
datasets/validation/swissimage-dop10_2017_2608-1128_4.png | datasets/validation_labels/swissimage-dop10_2017_2608-1128_4.png
datasets/validation/swissimage-dop10_2020_2582-1115_2.png | datasets/validation_labels/swissimage-dop10_2020_2582-1115_2.png
Weights/unet_vines.hdf5
Model: "model_1"
__________________________________________________________________________________________________
Layer (type)                    Output Shape         Param #     Connected to                     
==================================================================================================
input_1 (InputLayer)            [(None, 144, 144, 3) 0                                            
__________________________________________________________________________________________________
conv2d (Conv2D)                 (None, 72, 72, 3)    39          input_1[0][0]                    
__________________________________________________________________________________________________
conv2d_1 (Conv2D)               (None, 24, 24, 6)    168         conv2d[0][0]                     
__________________________________________________________________________________________________
conv2d_2 (Conv2D)               (None, 20, 20, 12)   1812        conv2d_1[0][0]                   
__________________________________________________________________________________________________
conv2d_3 (Conv2D)               (None, 16, 16, 12)   3612        conv2d_2[0][0]                   
__________________________________________________________________________________________________
conv2d_4 (Conv2D)               (None, 12, 12, 18)   5418        conv2d_3[0][0]                   
__________________________________________________________________________________________________
conv2d_5 (Conv2D)               (None, 8, 8, 18)     8118        conv2d_4[0][0]                   
__________________________________________________________________________________________________
conv2d_6 (Conv2D)               (None, 4, 4, 24)     10824       conv2d_5[0][0]                   
__________________________________________________________________________________________________
up_sampling2d (UpSampling2D)    (None, 12, 12, 24)   0           conv2d_6[0][0]                   
__________________________________________________________________________________________________
concatenate (Concatenate)       (None, 12, 12, 42)   0           conv2d_4[0][0]                   
                                                                 up_sampling2d[0][0]              
__________________________________________________________________________________________________
up_sampling2d_1 (UpSampling2D)  (None, 24, 24, 42)   0           concatenate[0][0]                
__________________________________________________________________________________________________
concatenate_1 (Concatenate)     (None, 24, 24, 48)   0           conv2d_1[0][0]                   
                                                                 up_sampling2d_1[0][0]            
__________________________________________________________________________________________________
up_sampling2d_2 (UpSampling2D)  (None, 72, 72, 48)   0           concatenate_1[0][0]              
__________________________________________________________________________________________________
up_sampling2d_3 (UpSampling2D)  (None, 144, 144, 48) 0           up_sampling2d_2[0][0]            
__________________________________________________________________________________________________
conv2d_7 (Conv2D)               (None, 144, 144, 2)  98          up_sampling2d_3[0][0]            
==================================================================================================
Total params: 30,089
Trainable params: 24,458
Non-trainable params: 5,631
__________________________________________________________________________________________________
None
input_1  | weights: 0  | trainable weights: 0  | non trainable weights: 0  | trainable layer: False
…
